trained_model_weights.pth (torch_old, 28333 bytes, 6 tensors)

fc1.weight f4 [64, 37]
000000 3c 43 8e 3c 3f 10 45 bd 71 9c 07 bd b3 14 99 be
       0.017366044 -0.048111197 -0.03310818 -0.29898605
000010 0a 10 78 3c ba 26 45 bd 09 2d af be f6 27 8c 3e
       0.015140543 -0.048132636 -0.34214047 0.27374238
000020 cd 21 94 bd b7 4a a6 be 83 e4 1e 3d b9 e4 3b be
       -0.072330095 -0.32478878 0.038792145 -0.1834897
000030 d3 31 97 bd 7c 78 ec bd a9 b5 7c be 15 7c 07 3d
       -0.0738255 -0.11546418 -0.24678673 0.03307732
000040 6a 07 56 3c d8 15 9f 3d f7 86 2e bd 66 d2 a6 3d
       0.013063291 0.07767838 -0.04260918 0.08145599
000050 00 cc b2 3d 55 1d 07 be 9f ae 33 3d 0b aa a9 3d
       0.08730316 -0.13194783 0.043867704 0.08284386
000060 3e 5f 21 be 71 55 6c bd 61 56 4a bc 82 8a 02 bd
       -0.15758988 -0.05769867 -0.012349696 -0.031870373
000070 35 f0 da bd 6b 5d 65 be 4e d6 df bd f9 13 13 3e
       -0.10690347 -0.22398917 -0.10929547 0.14363088
000080 30 32 a5 bd b3 20 71 3d cc 96 47 be a6 8d 67 be
       -0.08066213 0.058869075 -0.19491118 -0.22612628
000090 9a 05 b6 bc a8 50 6f 3e 45 57 86 bd 0b 13 a7 3d
       -0.022219468 0.23370612 -0.06559614 0.08157929
0000a0 6b d8 b5 3c dd b3 85 be ef b8 ad 3d 1e 44 cd be
       0.022197923 -0.26113787 0.08482539 -0.40091032
0000b0 b0 93 fa bc a2 f4 70 be aa 92 ba be 81 68 57 3d
       -0.030588001 -0.2353082 -0.3644002 0.052589897
0000c0 ca 0b c4 3d 35 aa f9 3c 57 a4 da bd 36 f6 8c bb
       0.09572561 0.030476669 -0.106758766 -0.0043018116
0000d0 b1 a2 a3 3d ad d0 04 3d 9b 60 d7 3d 80 2f 7a bd
       0.07990015 0.03242557 0.10516473 -0.061080456
0000e0 89 41 57 3d 9f 64 58 bd a5 5a 2d be d2 fe c5 bd
       0.052552734 -0.052830335 -0.1692911 -0.09667744
0000f0 c2 d6 2a 3d a2 56 8a bd 15 c2 77 3c 70 32 3a 3d
       0.041708715 -0.06754805 0.015121956 0.045458257
000100 44 9f 9b bd 04 03 b2 bc b2 80 23 be dd 7e d9 3d
       -0.07598737 -0.021729954 -0.15967062 0.106199004
000110 c0 69 26 3c de be 54 bc 6b b8 2f 3e aa eb e6 3d
       0.010157049 -0.012984959 0.17160194 0.11275418
000120 e8 c1 83 3d c3 3c e5 3a f0 26 09 3e 34 95 2c 3e
       0.06433469 0.0017489422 0.1339376 0.16853791
000130 70 2b 2e 3e b9 48 21 bd a4 13 94 be f8 c7 15 bf
       0.17008758 -0.039375994 -0.28921235 -0.58508253
000140 12 85 8b 3d 7d a4 93 3e 20 89 f5 3d b0 f5 de be
       0.068124905 0.28836432 0.11989045 -0.4354682
000150 a2 ce 03 be 30 48 d1 3d ea 12 d9 3d 75 fe de 3d
       -0.12871793 0.10218847 0.10599311 0.108883776
000160 c1 89 45 3e fc a1 21 bb 68 a2 c9 bc 4e 53 ac 3d
       0.1929083 -0.00246632 -0.024613574 0.084143266
000170 25 b9 4e 3e 3b 9b 85 3e 9d d6 4f be fa b5 41 3d
       0.20187815 0.26094994 -0.20296712 0.047292687
000180 58 ca 32 3e 97 b3 06 be 89 89 8f be b8 99 84 3d
       0.1746 -0.13154446 -0.28034618 0.06474632
000190 30 b2 17 3d 0c 05 13 3e 87 87 a4 3d ab 10 dc bc
       0.037035167 0.14357394 0.08033662 -0.026863417
0001a0 69 3f 5a be da d5 a9 3d 6d 67 6d 3c 98 75 4b be
       -0.21313252 0.08292742 0.014489991 -0.19869077
0001b0 81 88 4c bd 6d 13 a1 3a b4 ae 69 bc f8 27 9f bd
       -0.049934868 0.0012289115 -0.014262844 -0.07771295
0001c0 b3 84 a4 3e f2 bd f4 3d 25 09 19 3e 74 a5 ad be
       0.3213249 0.11950292 0.14944895 -0.33915293
0001d0 ae b4 b6 bc 16 75 48 be d9 f8 ff bb 5b f0 98 3d
       -0.022302952 -0.19575915 -0.0078116474 0.07467719
0001e0 91 49 15 3e 76 5f 59 3d 8d dc 50 3d eb 38 b8 bd
       0.14578845 0.053069554 0.050991584 -0.08995231
0001f0 68 07 bf bd b5 1d 7b be a2 6f 5b bc 83 6d 59 be
       -0.093275845 -0.24523051 -0.013393315 -0.21233182
000200 8a fa e3 bd 1e ee d9 3c 8c 90 a8 3d 9a 87 fb bc
       -0.11131771 0.026602801 0.08230695 -0.030704308
000210 95 f8 7c 3d 31 f5 18 3a f9 9c 97 bd 23 6d 6d be
       0.061760504 0.0005834876 -0.07402987 -0.23186164
000220 77 53 43 be c4 ff 08 be ba 64 11 3c 72 59 c4 3e
       -0.19074808 -0.13378817 0.008874113 0.3834949
000230 f0 e2 96 3e 4a 83 38 3e 76 27 2f be c8 e2 a1 bd
       0.29470015 0.18018833 -0.17104897 -0.07904583
000240 ee 99 65 be 3e a4 b3 bf a1 b6 66 3d f0 c8 3d 3b
       -0.22422001 -1.4034498 0.056326512 0.002895888
000250 84 86 36 bd 73 9d 8a be a0 10 2d bd 79 f1 9b be
       -0.044561878 -0.2707325 -0.042252183 -0.30457667
000260 e7 89 8a bd f0 e5 db 3d c1 c3 93 3e 8d b0 89 be
       -0.06764584 0.107372165 0.28860286 -0.2689251
000270 d5 b4 06 3c 0e dd 5b bf 55 a8 1f be 84 35 71 bc
       0.008221825 -0.8588418 -0.15591557 -0.014722232
000280 25 68 3f bd 80 8d 19 3d 99 7c 8e be 77 25 29 be
       -0.04673018 0.03748846 -0.27829435 -0.16518198
000290 8a fb eb bc b0 b2 af bb 9d 00 9d 3c a5 39 82 bd
       -0.028806467 -0.0053618774 0.019165331 -0.06358651
0002a0 f5 77 c3 be 92 da 3d bd 11 ad 18 3e 0a 53 38 3e
       -0.38177457 -0.046351023 0.1490977 0.18000427
0002b0 d5 cb 14 3e fc 6a e7 bd b3 19 51 bd 34 18 fb 3d
       0.14530881 -0.112997025 -0.0510499 0.12260476
0002c0 99 41 59 3e 27 86 fe 3d 65 08 19 3e e6 70 81 be
       0.2121643 0.12427931 0.14944609 -0.25281447
0002d0 1c 6b 15 3d af af b8 bb c4 37 44 be 39 0a 42 bc
       0.0364791 -0.0056361775 -0.19161898 -0.011843258
0002e0 e4 76 a4 bb 58 dd 74 3d 9f 06 19 bc b3 d3 39 3c
       -0.0050190557 0.059781402 -0.0093399575 0.011341977
0002f0 0c c8 fb bc 7e dc 61 3d ea 89 95 3e 83 43 68 bc
       -0.030735038 0.05514192 0.29206783 -0.014176252
000300 59 28 53 be 95 84 c3 bd e9 82 a8 bf 88 54 be bc
       -0.2062086 -0.095467724 -1.3164951 -0.023233667
000310 02 40 0b bd 37 6c 96 3c ad b9 2f be 2f 2b 0e 3e
       -0.03399659 0.018362148 -0.17160673 0.1388366
000320 fa c1 55 3d fe a7 4a bc 49 79 c7 3b 35 96 1a bd
       0.052186944 -0.012369154 0.0060874564 -0.037740905
000330 92 6f 5a be d2 8f ba 3d b4 87 a2 3d 85 de c2 3d
       -0.21331623 0.09109463 0.079360396 0.095150985
000340 97 be ef 3d b9 36 11 3d 22 b7 e8 3c 65 b0 a5 bd
       0.11706274 0.03545258 0.028407637 -0.08090285
000350 7a 9f 66 bd 12 b3 40 3e 66 ed a4 bd f6 e5 c0 3d
       -0.056304432 0.1881831 -0.08053093 0.094188616
000360 df 92 fe bd 70 28 93 bd 38 77 f3 3d 3b 1c 8f be
       -0.12430357 -0.07185447 0.118879735 -0.27951226
000370 0c 8c 7f 3d e4 d4 10 3d 55 fa 8c 3d a0 7c dd 3a
       0.06238942 0.03535928 0.068836845 0.0016898103
000380 f8 f4 30 be d0 6b bc bd 87 49 c5 be 89 f2 bc bd
       -0.17280948 -0.09200251 -0.3853266 -0.092259474
000390 7f 8a e7 bd 3f 24 36 be 26 e3 0d 3e f1 6a cd 3e
       -0.11305713 -0.17787264 0.13856182 0.40120652
0003a0 13 f1 95 3d 53 95 3a bd 70 10 6f 3d 98 53 5f 3d
       0.07321372 -0.045552563 0.058365285 0.05452308
0003b0 83 f4 48 3e 0b 0b 7b bd 7b da 0b be 4f 37 ac bd
       0.19624524 -0.06128983 -0.13657562 -0.08408987
0003c0 cf 78 00 3e d5 5e 14 3e 5d 9e 92 bd 96 7a 8b 3d
       0.12546085 0.144893 -0.07159112 0.06810491
0003d0 95 b2 2e 3d 50 e4 bb be c5 7b 4c 3e 4e 50 fd bd
       0.042650778 -0.36697626 0.1996909 -0.123688325
0003e0 3f ab 03 3c 5f ba 41 be 0a d5 04 be 5a 48 00 3e
       0.008036434 -0.18918751 -0.12971893 0.125276
0003f0 5d a0 ef 3c ae ea a3 bc 03 b8 4b be ea d4 aa 3d
       0.029251272 -0.020009365 -0.19894414 0.083413914

fc1.bias f4 [64]
000000 df 92 a6 3d db f4 87 bc 75 ac d1 bd c0 1d 61 bd
       0.08133482 -0.016596248 -0.10237972 -0.054960012
000010 34 62 25 3e 21 2c e0 bb f4 1b ec bd 24 2b bc 3d
       0.16150743 -0.006841198 -0.11528769 0.09187916
000020 fd 5f dc 3c 14 cc 46 be 35 b5 4e 3e 2e a2 6e 3e
       0.02690124 -0.19413787 0.20186312 0.23304054
000030 9b 68 9d 3c 5c 19 37 3d a2 68 6f bd 46 26 fa bd
       0.019214919 0.04470192 -0.058449395 -0.12214331
000040 94 5e a5 3b fd 85 54 3b 62 30 7c bd b5 f7 52 be
       0.005046675 0.0032428496 -0.06156958 -0.20602305
000050 bb 6e 18 bc 32 1b ab 3d 32 88 66 3c 6d 7a a4 bd
       -0.009303744 0.083547965 0.014070557 -0.08031163
000060 75 59 29 be 81 cf 0d 3e 1e 2b 5e bd a2 d8 25 be
       -0.16538031 0.13848688 -0.05424034 -0.1619592
000070 29 d3 00 3e 41 cd 09 3e 71 3d 0d 3d 80 94 12 be
       0.12580551 0.13457204 0.034482423 -0.14314461
000080 24 f7 1b 3e d1 8a 24 3d 00 e0 14 be 21 94 7d 3d
       0.15230995 0.04017145 -0.14538574 0.061908845
000090 fd 75 d1 bd 61 32 d5 3d 72 93 ac bc ea 77 06 be
       -0.102275826 0.1041 -0.021066401 -0.13131681
0000a0 b6 1c 0f be 20 38 19 3d c2 60 0e be d4 f3 74 3e
       -0.13975796 0.03740704 -0.13904098 0.23921138
0000b0 f4 71 5c bc e7 18 31 bd 7a 90 a8 bc 79 1a 29 be
       -0.013454903 -0.04323664 -0.020576704 -0.16514005
0000c0 b7 c3 cf bd cf 1b 98 3d 92 36 04 be ab 3e 47 3d
       -0.101447515 0.07427179 -0.12911442 0.04864375
0000d0 b8 bb c9 bd 50 83 48 be db a4 0e be 07 b5 55 3c
       -0.09850258 -0.19581342 -0.13930075 0.013043649
0000e0 26 72 2d 3e 93 e1 b6 bc 1d a6 40 bd 6b 0b c9 bd
       0.16938075 -0.022324359 -0.047033418 -0.09816631
0000f0 3d 5e f9 3b 32 bd d6 3c a3 89 4e 3c 5f 32 c7 bb
       0.007610111 0.026213262 0.012606057 -0.0060790027

fc2.weight f4 [64, 64]
000000 e9 23 df 3d b9 9a 79 3d 18 2d 30 3e 1c 3c 2f bd
       0.10895521 0.06093857 0.17204702 -0.042781934
000010 98 84 8c bd 89 7f bd bd ed 8d 24 be 57 ac 97 3c
       -0.06861228 -0.09252841 -0.16069765 0.018514795
000020 b6 70 6c bd f7 6d 24 3d 5b b2 8b 3d e6 84 0e be
       -0.057724677 0.040143933 0.06821128 -0.13917884
000030 8b e8 4d bd cc 37 07 3e 17 e4 f7 3c a8 6d 10 3e
       -0.0502706 0.13204879 0.030260129 0.1410433
000040 f0 7c 93 be 1e 62 11 be 47 21 f4 bd 9c c2 cb 3d
       -0.28806257 -0.14197585 -0.1192041 0.09949228
000050 ed 30 6b bd 84 f2 90 be 62 32 fe bc 15 a4 f5 3c
       -0.057419706 -0.28310025 -0.031029884 0.029985467
000060 16 64 66 3d 75 5f b9 ba ee 58 b2 3c cf a4 de 3d
       0.056247793 -0.0014142828 0.02177092 0.108712785
000070 a9 15 09 3e b9 4e c1 bd f6 4e 29 3e 84 05 22 3e
       0.13387169 -0.09438843 0.16534027 0.15822417
000080 18 5c 85 3d 11 bb 27 be 65 b0 0b be 49 88 ba be
       0.06511706 -0.16379954 -0.13641508 -0.36432102
000090 bc 98 7c 3d 79 d7 cb bb aa 04 26 be 26 3a 76 be
       0.061669096 -0.0062207547 -0.16212717 -0.2404562
0000a0 12 04 9e bd 51 8b 45 bd 57 d9 dd 3d 1c 8a a8 3b
       -0.0771562 -0.048228566 0.1083247 0.005143417
0000b0 e8 f3 96 bc c8 9e b5 bb a6 28 d2 bd 8e 30 a6 3d
       -0.01842685 -0.00554261 -0.10261659 0.0811473
0000c0 41 8d 07 be 7b 4f c0 3e 03 1f f8 bc f5 fa 3e be
       -0.13237478 0.3756064 -0.030288225 -0.1865042
0000d0 65 a7 7b bd b9 15 97 bc 8b 9c 61 bd b8 1e 55 3d
       -0.061438937 -0.018442975 -0.05508093 0.05203125
0000e0 eb bd 89 be 9a 5f ef bd b2 87 4d be e0 83 e7 be
       -0.26902708 -0.116881564 -0.20071295 -0.452178
0000f0 c9 cb c6 3d 55 bf 33 3f d6 e6 85 be dc 74 62 bd
       0.09706838 0.70213825 -0.26152676 -0.055287227
000100 b3 df 2f 3d 89 40 82 3d c0 56 c9 bc 90 19 33 3e
       0.042937946 0.06359965 -0.024577498 0.1749022
000110 5a 6e c0 3c 23 bb d5 3d 67 d4 d1 be ec 38 89 3d
       0.02349012 0.10436084 -0.40982363 0.0670031
000120 91 f8 89 bd d6 0f 8c be 93 c6 3a bd 78 7e 5b 3e
       -0.067368634 -0.27355832 -0.04559953 0.21434963
000130 f5 7d b7 bd fc ac e3 3d 79 5a be 3d 39 21 a7 3d
       -0.08959571 0.111169785 0.092946 0.081606336
000140 93 a7 32 3e 81 3c 42 3e 80 1f 02 3d df 97 da bd
       0.17446737 0.18968393 0.031768322 -0.10673498
000150 40 2f cb bc 46 12 6f 3d d6 c2 9f bd c9 66 c4 bc
       -0.024802804 0.058367036 -0.07800834 -0.023974793
000160 80 ee 33 be 5f b9 29 3d 9d 4a 2d bd 36 c0 d3 bd
       -0.1757145 0.04143655 -0.042307485 -0.10339396
000170 d7 10 68 3c 3e 57 23 bc 2c a3 a9 be f4 bf 5e 3d
       0.014164171 -0.009969531 -0.33132303 0.05438228
000180 e5 cf d3 bd 22 47 f6 3d b8 6a bd 3d c5 49 a8 bd
       -0.10342387 0.12025286 0.092488706 -0.082171954
000190 ae 3b f3 bd dc 31 a4 3d 6e 5d b9 3e d6 3a f2 bd
       -0.11876617 0.080173224 0.36204094 -0.11827628
0001a0 10 fb f1 3d 8a d9 54 bd f0 e4 c0 bd 19 ea 40 bd
       0.118154645 -0.051965274 -0.09418666 -0.047098253
0001b0 3a 1c cc bb f4 cb 13 be a2 7e 11 be 5b fe 1f be
       -0.006228951 -0.1443327 -0.14208463 -0.15624373
0001c0 e0 94 aa bc f7 7c 04 be 88 c2 11 bc 5a df 74 3d
       -0.020822942 -0.12938295 -0.0088964775 0.059783317
0001d0 59 2b 53 bc 70 ff 01 3b 82 39 9d bd 25 77 3c 3d
       -0.012888753 0.001983609 -0.07676984 0.046012063
0001e0 27 a1 34 3d 3c a8 46 bc 9b f3 1f 3e 4f cf 06 3e
       0.044099 -0.012125071 0.15620272 0.1316502
0001f0 45 5a 8a bd 7d 8e 80 bd f3 26 8d bd 42 af 21 bd
       -0.06755499 -0.062771775 -0.068921946 -0.03947378
000200 4f ea 44 be f3 b2 8e be a2 1b ef 3d 57 3b de 3b
       -0.19230007 -0.27870902 0.116751924 0.006781976
000210 64 b4 5e 3e 83 d3 81 be c9 33 30 be 21 13 14 bc
       0.21748501 -0.25356683 -0.17207254 -0.009037764
000220 dd e0 db 3c 38 3a d8 be 6a eb c5 bc e5 73 99 3c
       0.026840622 -0.42231917 -0.024160106 0.01873202
000230 77 5c 9f bd ac 1f a7 bd 62 2a 91 be aa f1 69 3d
       -0.07781308 -0.08160338 -0.28352648 0.057115234
000240 1e 5d 94 3d 1c e5 22 3d 4f 24 4e be 26 bb 15 3e
       0.07244323 0.039769277 -0.20131038 0.14622173
000250 c4 da fa bd 80 22 c7 3e 0c 98 6c 3b 10 7e 9b 3d
       -0.122487575 0.3889351 0.003610137 0.07592404
000260 4b db 5f be 0b aa 38 3d 4e c2 1b bc 44 05 8e bd
       -0.21860997 0.04508404 -0.009506775 -0.06934598
000270 a4 14 63 3d f8 27 28 3e 8a b4 19 3e 66 59 2e 3e
       0.055439606 0.16421497 0.15010276 0.1702629
000280 f1 1c 47 be 42 db 47 be 93 2c cc be 41 01 12 3e
       -0.19444634 -0.19517234 -0.39877757 0.14258291
000290 91 25 7f 3d 78 ca 56 3e 4a 04 d4 ba f6 01 29 3d
       0.062291685 0.20975673 -0.0016175595 0.041261636
0002a0 a9 ee cc 3c 42 c6 1d be e5 44 87 bd a5 b2 ee bd
       0.025016146 -0.1540766 -0.066049375 -0.116551675
0002b0 b6 d6 27 be 00 47 ad 3d f6 dd 20 be 65 5d 6b be
       -0.163905 0.08460808 -0.15709671 -0.22984846
0002c0 39 f9 1b 3c 83 aa 89 be 3a f5 8f 3d 98 08 ff bb
       0.0095198685 -0.26887903 0.07029195 -0.007783007
0002d0 48 87 5c be b7 d6 90 3e 42 a9 d1 bd 27 51 60 bc
       -0.2153598 0.28288814 -0.102373615 -0.013691223
0002e0 19 73 c2 bc 93 e4 53 be 04 ec 21 3e 00 31 b0 3d
       -0.023736523 -0.20692663 0.15812689 0.08603096
0002f0 74 23 85 be 74 e0 61 be e9 d7 cf bd 8a ea 4f 3d
       -0.2600361 -0.22058278 -0.101486035 0.050760783
000300 4f cf 09 3d 93 84 1a 3d 69 aa 6b 3d 39 7f 79 3e
       0.03364497 0.03772409 0.057535563 0.24364938
000310 97 08 9c bd 13 a4 bc 3d 4b c6 94 3d d4 b4 01 3e
       -0.07618826 0.09210982 0.07264384 0.12666637
000320 73 51 09 bd 65 51 09 be 9a 47 b2 bd 52 28 2d 3d
       -0.03352494 -0.13409956 -0.08705063 0.04227478
000330 0d ff 32 3d b5 48 70 3e 67 7d 11 3e 1b b3 b1 3c
       0.043700267 0.23465236 0.14207993 0.02169185
000340 09 9c c0 bd 8b 23 4e bd 5f d6 5d bd ce c7 03 be
       -0.09404761 -0.050326865 -0.05415952 -0.12869188
000350 e7 9e 27 bb 6b 67 cc 3e b5 76 89 3d 49 ab 79 3e
       -0.002557689 0.39922652 0.06712095 0.24381746
000360 47 42 7f 3e 78 bd fb bb 76 85 cb 3d 48 31 f0 bd
       0.24927627 -0.0076824985 0.09937565 -0.1172815
000370 90 d1 89 3e e2 ac e4 bd c8 d2 ac be 67 aa b7 3d
       0.26917696 -0.11165787 -0.33754563 0.089680485
000380 0b 08 46 3a 07 0c 1c 3e cf 09 03 be 05 13 73 3e
       0.0007554299 0.15238963 -0.1279671 0.23737724
000390 e6 ac 82 3d 26 15 14 3e 68 bf 6c 3e 66 c9 f9 bd
       0.06380634 0.14461192 0.2311989 -0.12196617
0003a0 40 2b 0c 3e 51 14 72 3e c8 70 d2 3c 39 f1 d0 bd
       0.13688374 0.23640563 0.025688544 -0.102022596
0003b0 a7 b0 f7 bd f9 d6 b3 bd 7e 5c 06 3d 2c 1a 28 3e
       -0.12094241 -0.08781237 0.03280305 0.16416234
0003c0 e1 2a 81 3e 85 9c 60 3e 6a 8e 99 bd 12 43 d7 bd
       0.25228027 0.21934707 -0.074978665 -0.105108395
0003d0 53 08 bf bd 6b 04 24 3e d6 fd fd bd dd 09 2c bc
       -0.093277596 0.1601731 -0.12401931 -0.010500398
0003e0 4e be 2f bd 1b cd 24 be 59 2d 93 bd 95 96 9a 3e
       -0.042906098 -0.16093867 -0.07186384 0.3019301
0003f0 fb ac 74 be 80 c1 03 3e 5a 38 8a bd 85 1a 20 bc
       -0.23894112 0.12866783 -0.067490295 -0.009771948

fc2.bias f4 [64]
000000 83 f3 dd 3c 6c 70 d5 3c 5f 5e 83 3d 4b 7b 2f bd
       0.027093654 0.026054583 0.06414484 -0.04284219
000010 f4 f2 13 3e f2 bb b1 3c 7c ea 2e be f5 c2 c1 bc
       0.14448148 0.021696065 -0.17081636 -0.023652533
000020 dc 8e b7 3d 49 90 d7 3e 18 f1 00 be c9 43 78 3e
       0.08962795 0.42102268 -0.1259197 0.24244608
000030 36 6e 1f 3e 25 9f e2 3c 83 93 d9 bd 3d 90 3b 3e
       0.15569386 0.027663777 -0.10623839 0.18316741
000040 d3 17 d1 3c d3 81 8d 3d a6 37 04 bd ab 50 a2 3e
       0.025524056 0.06909528 -0.032279633 0.3170217
000050 92 95 8a 3e fc 45 01 3f e5 1d 10 be 10 94 d5 bd
       0.27067238 0.5049741 -0.14073904 -0.10428631
000060 82 b7 c3 bd 16 dd 47 be ba e1 d5 3d 4a 9b 58 bd
       -0.09556486 -0.19517931 0.104434446 -0.05288247
000070 f3 4c f8 bd af e1 88 3d 23 dd ac bc 74 63 fc bb
       -0.12124052 0.06683671 -0.02110154 -0.0077022854
000080 0a 04 93 3d e5 90 8b 3e b3 ae c4 3c 1a d5 84 bc
       0.07178505 0.27258983 0.024009084 -0.016214896
000090 d0 25 6b bd 3d 3d 7a 3d 98 63 11 3e 0a 5a a7 bd
       -0.057409108 0.061093558 0.14198148 -0.081714705
0000a0 f5 38 14 be 12 43 e1 3e cc b7 6e 3e 34 e8 86 bd
       -0.14474852 0.43996483 0.233123 -0.06587258
0000b0 ea cd 64 3d 1d 07 68 bd d3 fd c1 3d 88 89 89 bd
       0.055860437 -0.05664741 0.09472241 -0.06715685
0000c0 6a 4e 86 3c a5 8a 95 bc 46 de c2 bd df 7c ca 3e
       0.016394813 -0.018254587 -0.095150515 0.39548394
0000d0 ca 6e c4 bc e3 e0 f7 bc c9 18 36 3e 73 e2 33 be
       -0.02397861 -0.030258602 0.17782892 -0.17566852
0000e0 f4 82 77 be 30 53 05 be 32 22 55 3d 01 68 03 be
       -0.24171048 -0.13020015 0.052034564 -0.12832643
0000f0 0d 8e 18 bc 3c 1c aa 3e 18 1e 12 3e 2a 0d 2e be
       -0.009311211 0.33224666 0.14269292 -0.16997209

fc3.weight f4 [4, 64]
000000 62 ac cd 3e fc 7f ea 3c 22 2d a9 3c a9 96 73 be
       0.4017058 0.02862548 0.020651404 -0.23787941
000010 f1 aa 8e 3e ec 10 9f 3d cf 9a 99 be 56 71 49 be
       0.27864793 0.077668995 -0.30000922 -0.1967214
000020 7c 13 94 3e bf c2 08 3e ed 13 ac be d7 a0 8f 3e
       0.28921115 0.1335554 -0.33608952 0.280524
000030 41 3a b8 3d a7 e3 7d 3e 8d 3b 47 bc af a6 29 be
       0.08995486 0.24793874 -0.012160194 -0.16567491
000040 21 13 9a be 71 8c 74 3e 42 aa af 3e 97 d7 48 3e
       -0.3009272 0.23881699 0.34309584 0.19613491
000050 7f d9 ba 3d 0e 25 35 3e fa 49 94 bd 12 7c 56 be
       0.09123515 0.17689916 -0.072406724 -0.20945767
000060 6a 20 12 bf c7 56 b2 bd d4 73 a0 be 93 3a 76 3e
       -0.5708071 -0.08707958 -0.3133837 0.24045782
000070 f9 21 3b 3d 77 02 8f 3d 16 6a 41 be 90 54 db 3d
       0.045686696 0.06982892 -0.18888125 0.107094884
000080 30 6f cf 3e 1c 22 7e 3e 0e b3 cb 3d 3d 4f 1c 3e
       0.40514517 0.24817699 0.09946261 0.15264602
000090 2b c0 12 3e 9e 5e 5c 3e ab 66 45 3e e8 c0 2f 3c
       0.14331119 0.21520469 0.19277446 0.010727145
0000a0 d4 2f 75 bd 7c a6 0c 3e 1f a6 eb 3d 08 81 b4 3d
       -0.059860066 0.13735384 0.115062945 0.08813673
0000b0 db 90 62 3d 21 1a a4 3c d3 05 01 3e 9f 29 04 3f
       0.055313926 0.02003199 0.12599878 0.5162601
0000c0 cc 08 b5 3d 75 5e 59 3e bd 52 ce bd 59 0f 5a 3e
       0.088395685 0.21227439 -0.10074375 0.21294917
0000d0 d6 95 0f be e2 c7 44 3e ff 02 26 3e f3 99 20 be
       -0.14022002 0.19216874 0.1621208 -0.15683727
0000e0 f2 d3 71 be 4b cd 4c bc 98 06 d1 bd 82 16 8f 3d
       -0.23616007 -0.0125001175 -0.10206336 0.06986715
0000f0 9f 25 23 be d4 8e 39 3e f0 6c 0d ba 87 3d 85 bc
       -0.1593232 0.18120891 -0.0005394956 -0.01626469
000100 a9 bc c3 3e 45 dd 92 3d 02 53 4c 3e 9b 46 c0 bd
       0.38229874 0.0717111 0.1995354 -0.09388467
000110 8a 0f 7d 3e b6 c3 09 3e 11 bf 9d bd 9a b6 7b be
       0.24712959 0.13453564 -0.07702459 -0.24581376
000120 4d 7b a1 3e f5 ad 00 3e 44 54 ab bd cc a0 04 3e
       0.31539384 0.1256636 -0.08365682 0.12951964
000130 54 db bb 3d 31 01 a6 3e a7 0c 4a bd 3d e2 00 3e
       0.09172693 0.32422784 -0.049328472 0.12586303
000140 38 7d a5 be f6 b3 31 3e 4c 7c a8 3e 7b 06 f9 3d
       -0.32322097 0.17353806 0.3290733 0.12159439
000150 5a 2a ef 3d e3 d6 89 3e 79 16 5b be 42 b3 10 3d
       0.11678 0.26921758 -0.21395291 0.035327204
000160 0e 53 a2 3e 2a 63 48 be 16 e4 70 3e 93 ae 21 3e
       0.3170399 -0.19569078 0.23524508 0.15789251
000170 64 da 5c bd 08 16 97 3d e1 f6 9b bd c6 5a 6d 3e
       -0.05391921 0.07377249 -0.07615448 0.23179159
000180 13 da 0f 3e 1f 28 3a 3e f7 7d c5 3e 0e 81 e0 3d
       0.14048032 0.18179367 0.38572666 0.10962115
000190 4e 3c 2c 3e 4c f7 cb 3d cf 66 44 3e 78 ad b0 3d
       0.1681988 0.099592775 0.19179843 0.086268365
0001a0 61 5e 91 bc 17 f1 41 3e 8a bd b9 3d 64 6a 0c 3e
       -0.017745199 0.18939625 0.09069355 0.1371246
0001b0 31 5d a6 3d 58 bd 76 bd a8 75 25 3e d7 ed d2 3e
       0.081232436 -0.060239166 0.16158164 0.41197082
0001c0 46 20 b7 3e fe 2e 21 3e 3b 81 43 be ff db 27 3e
       0.3576681 0.15740582 -0.19092266 0.16392516
0001d0 a6 ff 34 bd a2 02 a0 3e 65 fc 7a 3e d1 45 df bd
       -0.044189118 0.3125201 0.24510343 -0.10901988
0001e0 e6 55 6a be 2b 02 20 bd 5e 81 3a be c1 38 a4 be
       -0.2288433 -0.039064568 -0.18213412 -0.3207455
0001f0 b9 ad 2d be 7e 31 7d 3d 90 f2 d4 3d 04 64 13 be
       -0.16960801 0.061814778 0.103978276 -0.14393622
000200 ff b1 e2 3d 1a 25 45 3e b7 0e b1 3e 5d b9 73 3d
       0.11069106 0.19252434 0.3458154 0.059502948
000210 1d 65 86 3e 73 c0 dd 3c d2 f4 1b 3d 38 44 24 be
       0.26249018 0.027069306 0.038075276 -0.16041648
000220 9c 64 90 3e fe f6 0e 3e 24 27 8d be 8f 2f 47 3e
       0.2820176 0.13961408 -0.27568924 0.19451736
000230 9e d7 0c 3e 9b fe 6b bd 5b 70 6c bd 22 2c 10 3e
       0.13754126 -0.057615858 -0.057724338 0.14079335
000240 75 93 c0 3e 08 dc 0f 3d 0a ab 03 be 8d 74 55 3d
       0.376125 0.035121948 -0.12858215 0.052113105
000250 a4 22 fa 3d bc af 7b 3e 1c 01 65 be 70 52 03 3e
       0.122136384 0.24578756 -0.22363704 0.12824416
000260 eb 3c f4 3d 04 62 b8 3c 69 bb 52 3e a2 95 ca 3e
       0.11925682 0.022507675 0.20579304 0.39567286
000270 6d a8 a1 3d 2f f7 80 3e 0c 60 b9 be a7 ce dd 3c
       0.07893453 0.25188586 -0.3620609 0.027076079
000280 e2 eb e5 3d 99 3d 87 3e d9 f1 9f 3e 23 fa ad 3e
       0.11226632 0.26414183 0.31239203 0.33979902
000290 38 58 6b 3e ed f5 3f 3e a4 f1 57 3e 78 00 12 3f
       0.22982872 0.18746157 0.21088272 0.57031965
0002a0 f6 f2 9c 3e 51 c1 4a 3e 02 0e 0e 3e 5c c6 ac bd
       0.30654114 0.19800307 0.13872531 -0.084362715
0002b0 bb 48 10 3e 7f 83 4c 3c a1 d0 0b 3e 8a b8 b5 3e
       0.14090244 0.012482523 0.13653804 0.35492355
0002c0 68 d4 bc 3e 02 83 c0 bc 0f 3b 0a be e3 83 9b 3e
       0.36880803 -0.02349997 -0.13499092 0.3037406
0002d0 76 28 1f be 24 88 4e bb ae 3e 50 3e 0f 57 3a be
       -0.15542778 -0.0031514252 0.2033641 -0.18197273
0002e0 05 c2 54 be 7a e1 c8 bb 87 c6 89 3d c8 fb 8b be
       -0.20777138 -0.0061303945 0.06727319 -0.2734053
0002f0 9c 9c 1d be 06 90 64 3e 85 94 49 3d f5 ee 9f be
       -0.15391773 0.22320566 0.049213905 -0.31236997
000300 7b d6 c5 3e 5a 92 18 3e 9b 14 8b 3e 3b 41 a1 be
       0.38640198 0.14899579 0.27164158 -0.3149508
000310 28 09 70 3e 8a a3 8e 3e 3c c5 0d bf 5c 89 28 be
       0.23440993 0.27859145 -0.5537908 -0.16458648
000320 95 f3 e0 3e bc d7 47 3e c9 d7 99 3d f3 62 e4 3c
       0.43935838 0.1951589 0.07511861 0.027879214
000330 27 0a 90 3e bd b5 6e 3d 1a 84 1f 3d 65 af 91 3d
       0.28132746 0.058278788 0.03894434 0.07113532
000340 31 cb 84 3e 0f 25 98 3d 8c 15 ca 3e a5 26 31 3e
       0.25936273 0.07428943 0.39469564 0.17299898
000350 64 ba 75 3d 8c 03 82 3e 9e ff 42 be 04 eb a0 3d
       0.05999221 0.2539333 -0.19042823 0.07857326
000360 4c e5 8f be 5a 7d ae be 9d 59 d6 3e 1f 76 f8 3e
       -0.28104627 -0.3408001 0.41865245 0.4852762
000370 b3 61 bf 3d 32 72 8b bd 27 b4 16 be 0e 18 b7 3d
       0.093448065 -0.068088904 -0.1471716 0.08940135
000380 3f 27 db bb 8c 19 52 3e 38 3f 23 3d 24 3d 12 3e
       -0.006688028 0.20517558 0.039855212 0.14281136
000390 f8 18 86 bd fe 0a 88 3e 05 1b 56 3e 4a dd cd 3e
       -0.06547731 0.26570886 0.20908745 0.40207893
0003a0 12 05 4b be b2 3a 4c 3e 50 46 46 3e 89 4c a4 be
       -0.19826153 0.19944265 0.1936276 -0.32089642
0003b0 04 06 b1 3e f8 e2 31 be 6a 91 cd 3d 0a 4b ff bd
       0.34574902 -0.17371738 0.10037501 -0.124654844
0003c0 e3 a3 a8 bd 0c 70 8e 3d e3 7f 43 3e 79 d6 68 3e
       -0.08234384 0.06954965 0.19091754 0.22738065
0003d0 d9 8c 08 bf ac 37 a6 3e b6 3b 47 3e 36 3b b6 3d
       -0.53339916 0.3246435 0.19456372 0.08898012
0003e0 90 4f 39 be f7 04 98 bd d4 f4 17 bf 7b 9b cc be
       -0.18096757 -0.07422822 -0.59357953 -0.39962372
0003f0 15 05 80 be 4b 13 cd 3d 40 7c cb be 06 34 a1 3e
       -0.25003877 0.100134455 -0.39743233 0.31485003

fc3.bias f4 [4]
000000 69 f8 93 3e 62 0f 80 3e 80 02 15 3e 72 fa 38 3e
       0.2890046 0.25011736 0.14551735 0.18064287
